#loc = loc("/tmp/ipykernel_2508/2209651891.py":6:0)
#loc73 = loc("a_ptr"(#loc))
#loc74 = loc("b_ptr"(#loc))
#loc75 = loc("c_ptr"(#loc))
#loc76 = loc("M"(#loc))
#loc77 = loc("N"(#loc))
#loc78 = loc("K"(#loc))
#loc79 = loc("stride_am"(#loc))
#loc80 = loc("stride_bk"(#loc))
#loc81 = loc("stride_cm"(#loc))
module {
  tt.func public @matmul_kernel(%a_ptr: !tt.ptr<f16> {tt.divisibility = 16 : i32} loc("a_ptr"(#loc)), %b_ptr: !tt.ptr<f16> {tt.divisibility = 16 : i32} loc("b_ptr"(#loc)), %c_ptr: !tt.ptr<f16> {tt.divisibility = 16 : i32} loc("c_ptr"(#loc)), %M: i32 {tt.divisibility = 16 : i32} loc("M"(#loc)), %N: i32 {tt.divisibility = 16 : i32} loc("N"(#loc)), %K: i32 {tt.divisibility = 16 : i32} loc("K"(#loc)), %stride_am: i32 {tt.divisibility = 16 : i32} loc("stride_am"(#loc)), %stride_bk: i32 {tt.divisibility = 16 : i32} loc("stride_bk"(#loc)), %stride_cm: i32 {tt.divisibility = 16 : i32} loc("stride_cm"(#loc))) attributes {noinline = false} {
    %c31_i32 = arith.constant 31 : i32 loc(#loc82)
    %accumulator = arith.constant dense<0.000000e+00> : tensor<64x64xf32> loc(#loc136)
    %c63_i32 = arith.constant 63 : i32 loc(#loc1)
    %cst = arith.constant dense<0.000000e+00> : tensor<32x64xf16> loc(#loc1)
    %cst_0 = arith.constant dense<0.000000e+00> : tensor<64x32xf16> loc(#loc1)
    %c1_i32 = arith.constant 1 : i32 loc(#loc5)
    %cst_1 = arith.constant dense<32> : tensor<64x32xi32> loc(#loc1)
    %c32_i32 = arith.constant 32 : i32 loc(#loc1)
    %c64_i32 = arith.constant 64 : i32 loc(#loc1)
    %true = arith.constant true loc(#loc1)
    %c0_i32 = arith.constant 0 : i32 loc(#loc1)
    %c8_i32 = arith.constant 8 : i32 loc(#loc1)
    %pid = tt.get_program_id x : i32 loc(#loc84)
    %num_pid_m = arith.addi %M, %c63_i32 : i32 loc(#loc137)
    %num_pid_m_2 = arith.divsi %num_pid_m, %c64_i32 : i32 loc(#loc138)
    %num_pid_n = arith.addi %N, %c63_i32 : i32 loc(#loc139)
    %num_pid_n_3 = arith.divsi %num_pid_n, %c64_i32 : i32 loc(#loc140)
    %num_pid_in_group = arith.muli %num_pid_n_3, %c8_i32 : i32 loc(#loc87)
    %group_id = arith.divsi %pid, %num_pid_in_group : i32 loc(#loc88)
    %first_pid_m = arith.muli %group_id, %c8_i32 : i32 loc(#loc89)
    %group_size_m = arith.subi %num_pid_m_2, %first_pid_m : i32 loc(#loc90)
    %group_size_m_4 = arith.minsi %group_size_m, %c8_i32 : i32 loc(#loc91)
    %pid_m = arith.remsi %pid, %num_pid_in_group : i32 loc(#loc92)
    %pid_m_5 = arith.remsi %pid_m, %group_size_m_4 : i32 loc(#loc93)
    %pid_m_6 = arith.addi %first_pid_m, %pid_m_5 : i32 loc(#loc94)
    %pid_n = arith.divsi %pid_m, %group_size_m_4 : i32 loc(#loc95)
    %0 = arith.cmpi sge, %pid_m_6, %c0_i32 : i32 loc(#loc20)
    llvm.intr.assume %0 : i1 loc(#loc21)
    %1 = arith.cmpi sge, %pid_n, %c0_i32 : i32 loc(#loc22)
    llvm.intr.assume %1 : i1 loc(#loc23)
    %2 = arith.cmpi sgt, %stride_am, %c0_i32 : i32 loc(#loc24)
    llvm.intr.assume %2 : i1 loc(#loc25)
    llvm.intr.assume %true : i1 loc(#loc26)
    llvm.intr.assume %true : i1 loc(#loc27)
    %3 = arith.cmpi sgt, %stride_bk, %c0_i32 : i32 loc(#loc28)
    llvm.intr.assume %3 : i1 loc(#loc29)
    %4 = arith.cmpi sgt, %stride_cm, %c0_i32 : i32 loc(#loc30)
    llvm.intr.assume %4 : i1 loc(#loc31)
    llvm.intr.assume %true : i1 loc(#loc32)
    %offs_am = arith.muli %pid_m_6, %c64_i32 : i32 loc(#loc96)
    %offs_am_7 = tt.make_range {end = 64 : i32, start = 0 : i32} : tensor<64xi32> loc(#loc97)
    %offs_am_8 = tt.splat %offs_am : i32 -> tensor<64xi32> loc(#loc98)
    %offs_am_9 = arith.addi %offs_am_8, %offs_am_7 : tensor<64xi32> loc(#loc98)
    %offs_am_10 = tt.splat %M : i32 -> tensor<64xi32> loc(#loc99)
    %offs_am_11 = arith.remsi %offs_am_9, %offs_am_10 : tensor<64xi32> loc(#loc99)
    %offs_bn = arith.muli %pid_n, %c64_i32 : i32 loc(#loc100)
    %offs_bn_12 = tt.splat %offs_bn : i32 -> tensor<64xi32> loc(#loc101)
    %offs_bn_13 = arith.addi %offs_bn_12, %offs_am_7 : tensor<64xi32> loc(#loc101)
    %offs_bn_14 = tt.splat %N : i32 -> tensor<64xi32> loc(#loc102)
    %offs_bn_15 = arith.remsi %offs_bn_13, %offs_bn_14 : tensor<64xi32> loc(#loc102)
    %offs_k = tt.make_range {end = 32 : i32, start = 0 : i32} : tensor<32xi32> loc(#loc103)
    %a_ptrs = tt.expand_dims %offs_am_11 {axis = 1 : i32} : tensor<64xi32> -> tensor<64x1xi32> loc(#loc104)
    %a_ptrs_16 = tt.splat %stride_am : i32 -> tensor<64x1xi32> loc(#loc105)
    %a_ptrs_17 = arith.muli %a_ptrs, %a_ptrs_16 : tensor<64x1xi32> loc(#loc105)
    %a_ptrs_18 = tt.expand_dims %offs_k {axis = 0 : i32} : tensor<32xi32> -> tensor<1x32xi32> loc(#loc106)
    %a_ptrs_19 = tt.broadcast %a_ptrs_17 : tensor<64x1xi32> -> tensor<64x32xi32> loc(#loc107)
    %a_ptrs_20 = tt.broadcast %a_ptrs_18 : tensor<1x32xi32> -> tensor<64x32xi32> loc(#loc107)
    %a_ptrs_21 = arith.addi %a_ptrs_19, %a_ptrs_20 : tensor<64x32xi32> loc(#loc107)
    %a_ptrs_22 = tt.splat %a_ptr : !tt.ptr<f16> -> tensor<64x32x!tt.ptr<f16>> loc(#loc108)
    %a_ptrs_23 = tt.addptr %a_ptrs_22, %a_ptrs_21 : tensor<64x32x!tt.ptr<f16>>, tensor<64x32xi32> loc(#loc108)
    %b_ptrs = tt.expand_dims %offs_k {axis = 1 : i32} : tensor<32xi32> -> tensor<32x1xi32> loc(#loc109)
    %b_ptrs_24 = tt.splat %stride_bk : i32 -> tensor<32x1xi32> loc(#loc110)
    %b_ptrs_25 = arith.muli %b_ptrs, %b_ptrs_24 : tensor<32x1xi32> loc(#loc110)
    %b_ptrs_26 = tt.expand_dims %offs_bn_15 {axis = 0 : i32} : tensor<64xi32> -> tensor<1x64xi32> loc(#loc111)
    %b_ptrs_27 = tt.broadcast %b_ptrs_25 : tensor<32x1xi32> -> tensor<32x64xi32> loc(#loc112)
    %b_ptrs_28 = tt.broadcast %b_ptrs_26 : tensor<1x64xi32> -> tensor<32x64xi32> loc(#loc112)
    %b_ptrs_29 = arith.addi %b_ptrs_27, %b_ptrs_28 : tensor<32x64xi32> loc(#loc112)
    %b_ptrs_30 = tt.splat %b_ptr : !tt.ptr<f16> -> tensor<32x64x!tt.ptr<f16>> loc(#loc113)
    %b_ptrs_31 = tt.addptr %b_ptrs_30, %b_ptrs_29 : tensor<32x64x!tt.ptr<f16>>, tensor<32x64xi32> loc(#loc113)
    %5 = arith.addi %K, %c31_i32 : i32 loc(#loc114)
    %6 = arith.divsi %5, %c32_i32 : i32 loc(#loc115)
    %accumulator_32:3 = scf.for %k = %c0_i32 to %6 step %c1_i32 iter_args(%a_ptrs_47 = %a_ptrs_23, %b_ptrs_48 = %b_ptrs_31, %accumulator_49 = %accumulator) -> (tensor<64x32x!tt.ptr<f16>>, tensor<32x64x!tt.ptr<f16>>, tensor<64x64xf32>)  : i32 {
      %a = arith.muli %k, %c32_i32 : i32 loc(#loc117)
      %a_50 = arith.subi %K, %a : i32 loc(#loc118)
      %a_51 = tt.splat %a_50 : i32 -> tensor<1x32xi32> loc(#loc119)
      %a_52 = arith.cmpi slt, %a_ptrs_18, %a_51 : tensor<1x32xi32> loc(#loc119)
      %a_53 = tt.broadcast %a_52 : tensor<1x32xi1> -> tensor<64x32xi1> loc(#loc120)
      %a_54 = tt.load %a_ptrs_47, %a_53, %cst_0 : tensor<64x32x!tt.ptr<f16>> loc(#loc120)
      %b = tt.splat %a_50 : i32 -> tensor<32x1xi32> loc(#loc121)
      %b_55 = arith.cmpi slt, %b_ptrs, %b : tensor<32x1xi32> loc(#loc121)
      %b_56 = tt.broadcast %b_55 : tensor<32x1xi1> -> tensor<32x64xi1> loc(#loc122)
      %b_57 = tt.load %b_ptrs_48, %b_56, %cst : tensor<32x64x!tt.ptr<f16>> loc(#loc122)
      %accumulator_58 = tt.dot %a_54, %b_57, %accumulator_49, inputPrecision = tf32 : tensor<64x32xf16> * tensor<32x64xf16> -> tensor<64x64xf32> loc(#loc123)
      %a_ptrs_59 = tt.addptr %a_ptrs_47, %cst_1 : tensor<64x32x!tt.ptr<f16>>, tensor<64x32xi32> loc(#loc124)
      %b_ptrs_60 = arith.muli %stride_bk, %c32_i32 : i32 loc(#loc125)
      %b_ptrs_61 = tt.splat %b_ptrs_60 : i32 -> tensor<32x64xi32> loc(#loc126)
      %b_ptrs_62 = tt.addptr %b_ptrs_48, %b_ptrs_61 : tensor<32x64x!tt.ptr<f16>>, tensor<32x64xi32> loc(#loc126)
      scf.yield %a_ptrs_59, %b_ptrs_62, %accumulator_58 : tensor<64x32x!tt.ptr<f16>>, tensor<32x64x!tt.ptr<f16>>, tensor<64x64xf32> loc(#loc61)
    } loc(#loc142)
    %c = arith.truncf %accumulator_32#2 : tensor<64x64xf32> to tensor<64x64xf16> loc(#loc127)
    %c_ptrs = tt.expand_dims %offs_am_9 {axis = 1 : i32} : tensor<64xi32> -> tensor<64x1xi32> loc(#loc128)
    %c_ptrs_33 = tt.splat %stride_cm : i32 -> tensor<64x1xi32> loc(#loc129)
    %c_ptrs_34 = arith.muli %c_ptrs_33, %c_ptrs : tensor<64x1xi32> loc(#loc129)
    %c_ptrs_35 = tt.splat %c_ptr : !tt.ptr<f16> -> tensor<64x1x!tt.ptr<f16>> loc(#loc130)
    %c_ptrs_36 = tt.addptr %c_ptrs_35, %c_ptrs_34 : tensor<64x1x!tt.ptr<f16>>, tensor<64x1xi32> loc(#loc130)
    %c_ptrs_37 = tt.expand_dims %offs_bn_13 {axis = 0 : i32} : tensor<64xi32> -> tensor<1x64xi32> loc(#loc131)
    %c_ptrs_38 = tt.broadcast %c_ptrs_36 : tensor<64x1x!tt.ptr<f16>> -> tensor<64x64x!tt.ptr<f16>> loc(#loc132)
    %c_ptrs_39 = tt.broadcast %c_ptrs_37 : tensor<1x64xi32> -> tensor<64x64xi32> loc(#loc132)
    %c_ptrs_40 = tt.addptr %c_ptrs_38, %c_ptrs_39 : tensor<64x64x!tt.ptr<f16>>, tensor<64x64xi32> loc(#loc132)
    %c_mask = tt.splat %M : i32 -> tensor<64x1xi32> loc(#loc133)
    %c_mask_41 = arith.cmpi slt, %c_ptrs, %c_mask : tensor<64x1xi32> loc(#loc133)
    %c_mask_42 = tt.splat %N : i32 -> tensor<1x64xi32> loc(#loc134)
    %c_mask_43 = arith.cmpi slt, %c_ptrs_37, %c_mask_42 : tensor<1x64xi32> loc(#loc134)
    %c_mask_44 = tt.broadcast %c_mask_41 : tensor<64x1xi1> -> tensor<64x64xi1> loc(#loc135)
    %c_mask_45 = tt.broadcast %c_mask_43 : tensor<1x64xi1> -> tensor<64x64xi1> loc(#loc135)
    %c_mask_46 = arith.andi %c_mask_44, %c_mask_45 : tensor<64x64xi1> loc(#loc135)
    tt.store %c_ptrs_40, %c, %c_mask_46 : tensor<64x64x!tt.ptr<f16>> loc(#loc71)
    tt.return loc(#loc72)
  } loc(#loc)
} loc(#loc)
#loc1 = loc(unknown)
#loc2 = loc("/tmp/ipykernel_2508/2209651891.py":42:33)
#loc3 = loc("/usr/local/lib/python3.12/dist-packages/triton/language/standard.py":129:31)
#loc4 = loc("/tmp/ipykernel_2508/2209651891.py":41:27)
#loc5 = loc("/tmp/ipykernel_2508/2209651891.py":42:22)
#loc6 = loc("/tmp/ipykernel_2508/2209651891.py":16:24)
#loc7 = loc("/usr/local/lib/python3.12/dist-packages/triton/language/standard.py":43:17)
#loc8 = loc("/tmp/ipykernel_2508/2209651891.py":17:27)
#loc9 = loc("/usr/local/lib/python3.12/dist-packages/triton/language/standard.py":43:30)
#loc10 = loc("/tmp/ipykernel_2508/2209651891.py":18:27)
#loc11 = loc("/tmp/ipykernel_2508/2209651891.py":19:38)
#loc12 = loc("/tmp/ipykernel_2508/2209651891.py":20:22)
#loc13 = loc("/tmp/ipykernel_2508/2209651891.py":21:29)
#loc14 = loc("/tmp/ipykernel_2508/2209651891.py":22:35)
#loc15 = loc("/tmp/ipykernel_2508/2209651891.py":22:48)
#loc16 = loc("/tmp/ipykernel_2508/2209651891.py":23:34)
#loc17 = loc("/tmp/ipykernel_2508/2209651891.py":23:54)
#loc18 = loc("/tmp/ipykernel_2508/2209651891.py":23:27)
#loc19 = loc("/tmp/ipykernel_2508/2209651891.py":24:40)
#loc20 = loc("/tmp/ipykernel_2508/2209651891.py":26:23)
#loc21 = loc("/tmp/ipykernel_2508/2209651891.py":26:14)
#loc22 = loc("/tmp/ipykernel_2508/2209651891.py":27:23)
#loc23 = loc("/tmp/ipykernel_2508/2209651891.py":27:14)
#loc24 = loc("/tmp/ipykernel_2508/2209651891.py":28:26)
#loc25 = loc("/tmp/ipykernel_2508/2209651891.py":28:14)
#loc26 = loc("/tmp/ipykernel_2508/2209651891.py":29:14)
#loc27 = loc("/tmp/ipykernel_2508/2209651891.py":30:14)
#loc28 = loc("/tmp/ipykernel_2508/2209651891.py":31:26)
#loc29 = loc("/tmp/ipykernel_2508/2209651891.py":31:14)
#loc30 = loc("/tmp/ipykernel_2508/2209651891.py":32:26)
#loc31 = loc("/tmp/ipykernel_2508/2209651891.py":32:14)
#loc32 = loc("/tmp/ipykernel_2508/2209651891.py":33:14)
#loc33 = loc("/tmp/ipykernel_2508/2209651891.py":35:23)
#loc34 = loc("/tmp/ipykernel_2508/2209651891.py":35:51)
#loc35 = loc("/tmp/ipykernel_2508/2209651891.py":35:38)
#loc36 = loc("/tmp/ipykernel_2508/2209651891.py":35:68)
#loc37 = loc("/tmp/ipykernel_2508/2209651891.py":36:23)
#loc38 = loc("/tmp/ipykernel_2508/2209651891.py":36:38)
#loc39 = loc("/tmp/ipykernel_2508/2209651891.py":36:68)
#loc40 = loc("/tmp/ipykernel_2508/2209651891.py":37:26)
#loc41 = loc("/tmp/ipykernel_2508/2209651891.py":38:30)
#loc42 = loc("/tmp/ipykernel_2508/2209651891.py":38:41)
#loc43 = loc("/tmp/ipykernel_2508/2209651891.py":38:60)
#loc44 = loc("/tmp/ipykernel_2508/2209651891.py":38:53)
#loc45 = loc("/tmp/ipykernel_2508/2209651891.py":38:22)
#loc46 = loc("/tmp/ipykernel_2508/2209651891.py":39:29)
#loc47 = loc("/tmp/ipykernel_2508/2209651891.py":39:40)
#loc48 = loc("/tmp/ipykernel_2508/2209651891.py":39:60)
#loc49 = loc("/tmp/ipykernel_2508/2209651891.py":39:52)
#loc50 = loc("/tmp/ipykernel_2508/2209651891.py":39:22)
#loc51 = loc("/tmp/ipykernel_2508/2209651891.py":43:59)
#loc52 = loc("/tmp/ipykernel_2508/2209651891.py":43:55)
#loc53 = loc("/tmp/ipykernel_2508/2209651891.py":43:51)
#loc54 = loc("/tmp/ipykernel_2508/2209651891.py":43:20)
#loc55 = loc("/tmp/ipykernel_2508/2209651891.py":44:51)
#loc56 = loc("/tmp/ipykernel_2508/2209651891.py":44:20)
#loc57 = loc("/tmp/ipykernel_2508/2209651891.py":45:35)
#loc58 = loc("/tmp/ipykernel_2508/2209651891.py":46:18)
#loc59 = loc("/tmp/ipykernel_2508/2209651891.py":47:33)
#loc60 = loc("/tmp/ipykernel_2508/2209651891.py":47:18)
#loc61 = loc("/tmp/ipykernel_2508/2209651891.py":47:8)
#loc62 = loc("/tmp/ipykernel_2508/2209651891.py":51:23)
#loc63 = loc("/tmp/ipykernel_2508/2209651891.py":55:41)
#loc64 = loc("/tmp/ipykernel_2508/2209651891.py":55:33)
#loc65 = loc("/tmp/ipykernel_2508/2209651891.py":55:21)
#loc66 = loc("/tmp/ipykernel_2508/2209651891.py":55:72)
#loc67 = loc("/tmp/ipykernel_2508/2209651891.py":55:52)
#loc68 = loc("/tmp/ipykernel_2508/2209651891.py":56:33)
#loc69 = loc("/tmp/ipykernel_2508/2209651891.py":56:58)
#loc70 = loc("/tmp/ipykernel_2508/2209651891.py":56:39)
#loc71 = loc("/tmp/ipykernel_2508/2209651891.py":57:21)
#loc72 = loc("/tmp/ipykernel_2508/2209651891.py":57:4)
#loc82 = loc(callsite(#loc1 at #loc2))
#loc83 = loc("accumulator"(#loc4))
#loc84 = loc("pid"(#loc6))
#loc85 = loc("num_pid_m"(#loc8))
#loc86 = loc("num_pid_n"(#loc10))
#loc87 = loc("num_pid_in_group"(#loc11))
#loc88 = loc("group_id"(#loc12))
#loc89 = loc("first_pid_m"(#loc13))
#loc90 = loc("group_size_m"(#loc14))
#loc91 = loc("group_size_m"(#loc15))
#loc92 = loc("pid_m"(#loc16))
#loc93 = loc("pid_m"(#loc17))
#loc94 = loc("pid_m"(#loc18))
#loc95 = loc("pid_n"(#loc19))
#loc96 = loc("offs_am"(#loc33))
#loc97 = loc("offs_am"(#loc34))
#loc98 = loc("offs_am"(#loc35))
#loc99 = loc("offs_am"(#loc36))
#loc100 = loc("offs_bn"(#loc37))
#loc101 = loc("offs_bn"(#loc38))
#loc102 = loc("offs_bn"(#loc39))
#loc103 = loc("offs_k"(#loc40))
#loc104 = loc("a_ptrs"(#loc41))
#loc105 = loc("a_ptrs"(#loc42))
#loc106 = loc("a_ptrs"(#loc43))
#loc107 = loc("a_ptrs"(#loc44))
#loc108 = loc("a_ptrs"(#loc45))
#loc109 = loc("b_ptrs"(#loc46))
#loc110 = loc("b_ptrs"(#loc47))
#loc111 = loc("b_ptrs"(#loc48))
#loc112 = loc("b_ptrs"(#loc49))
#loc113 = loc("b_ptrs"(#loc50))
#loc114 = loc(callsite(#loc7 at #loc2))
#loc115 = loc(callsite(#loc9 at #loc2))
#loc116 = loc("a_ptrs"(#loc5))
#loc117 = loc("a"(#loc51))
#loc118 = loc("a"(#loc52))
#loc119 = loc("a"(#loc53))
#loc120 = loc("a"(#loc54))
#loc121 = loc("b"(#loc55))
#loc122 = loc("b"(#loc56))
#loc123 = loc("accumulator"(#loc57))
#loc124 = loc("a_ptrs"(#loc58))
#loc125 = loc("b_ptrs"(#loc59))
#loc126 = loc("b_ptrs"(#loc60))
#loc127 = loc("c"(#loc62))
#loc128 = loc("c_ptrs"(#loc63))
#loc129 = loc("c_ptrs"(#loc64))
#loc130 = loc("c_ptrs"(#loc65))
#loc131 = loc("c_ptrs"(#loc66))
#loc132 = loc("c_ptrs"(#loc67))
#loc133 = loc("c_mask"(#loc68))
#loc134 = loc("c_mask"(#loc69))
#loc135 = loc("c_mask"(#loc70))
#loc136 = loc(callsite(#loc3 at #loc83))
#loc137 = loc(callsite(#loc7 at #loc85))
#loc138 = loc(callsite(#loc9 at #loc85))
#loc139 = loc(callsite(#loc7 at #loc86))
#loc140 = loc(callsite(#loc9 at #loc86))
#loc141 = loc("b_ptrs"(#loc116))
#loc142 = loc("accumulator"(#loc141))
